app/alunos/resultados_dkt/modelo_dkt.pth (torch, 807290 bytes, 10 tensors)

lstm.weight_ih_l0 f4 [512, 4]
0	0x3d96b118	0.07357997
1	0x3ce4ff5f	0.027953802
2	0xbac98957	-0.0015376013
3	0x3d8daacf	0.06917345
4	0xbd14a5cf	-0.03629094
5	0x3bb65cc8	0.0055652596
6	0xbd771b1f	-0.0603286
7	0x3cdf454c	0.027254723
8	0x3ae3bf9c	0.001737583
9	0x3cddde7c	0.027083628
10	0xbc96daf8	-0.01841496
11	0x3d9622ce	0.07330857
12	0xbcbc0821	-0.022953095
13	0xbd57eb4c	-0.05271463
14	0xbd57eea3	-0.052717816
15	0x3da2d108	0.07950026
16	0x3dc12a3f	0.09431886
17	0x3dae2f9c	0.085051745
18	0xbd956416	-0.072944805
19	0xbdb38c7b	-0.08767029
20	0xbd14b9d4	-0.036310032
21	0xbd738a1a	-0.059457876
22	0x3d12a3e4	0.03580083
23	0x3d01a326	0.03164973
24	0x3dba9c5a	0.09111853
25	0xbd3af749	-0.045645986
26	0xbd76ce58	-0.06025538
27	0x3d4016fd	0.046896923
28	0xbad29cd3	-0.0016068466
29	0x3d5bbada	0.053644992
30	0xbcabd2f2	-0.02097461
31	0x3d4f1a4d	0.05056219
32	0xbdaed6a1	-0.08537031
33	0xbd36b3e6	-0.04460516
34	0x3cdcc10e	0.026947524
35	0x3c99134e	0.018685963
36	0x3b6d3050	0.0036192127
37	0x3d57ccd9	0.052685592
38	0x3d761e02	0.06008721
39	0xbd834539	-0.064096875
40	0xbc6ef14a	-0.014583895
41	0x3da5c0a5	0.08093385
42	0xbcf453c5	-0.0298251
43	0xbd005940	-0.031335115
44	0xbd5922a3	-0.053011548
45	0xbd4f542a	-0.050617374
46	0x3cb4e08e	0.022079732
47	0xbc3f2583	-0.011666658
48	0xbd7e472a	-0.062079586
49	0x3b07e02c	0.0020732982
50	0xbd774d4a	-0.060376443
51	0xbd999382	-0.07498838
52	0xbdd165dd	-0.10224507
53	0xbd9e6e29	-0.07735855
54	0xbd668618	-0.056280226
55	0x3db4f2d3	0.088353775
56	0x3ccc6585	0.024950752
57	0x3cdf21a7	0.027237726
58	0xbda8d57a	-0.082438424
59	0xbd6dc70b	-0.05805115
60	0xbc28ee4c	-0.010310721
61	0x3c627316	0.013821384
62	0xbd9f4864	-0.07777479
63	0xbd1bfe22	-0.038084157
64	0xbccd4ddb	-0.025061538
65	0x39806c39	0.00024494695
66	0xbd06b73b	-0.032889586
67	0xbbc8b3b4	-0.006124938
68	0xbceb267a	-0.02870487
69	0xbd788068	-0.060669333
70	0xbd5336c9	-0.05156592
71	0xbcf7d98d	-0.030255103
72	0xbdcdce70	-0.100491405
73	0x3d97c77d	0.07411096
74	0xbc8fb40c	-0.017541908
75	0x3d9bbf9a	0.076049045
76	0x3d70e5ad	0.058812786
77	0xbd994960	-0.07484698
78	0x3d7a8b23	0.061167847
79	0xbcc739e3	-0.024319595
80	0xbc803671	-0.01565096
81	0xbd964241	-0.07336856
82	0xbdb3f659	-0.087872215
83	0x3ccf2a8e	0.025288846
84	0x3c50e1eb	0.012749176
85	0x3d0cf335	0.034411628
86	0xbd948e53	-0.07253709
87	0x3d8664df	0.065622084
88	0xbce3a416	-0.027788203
89	0xbc7a0ec6	-0.015262311
90	0x3c973ce1	0.018461647
91	0x3d3ae732	0.04563064
92	0x3ddef197	0.10885923
93	0x3da4e6b7	0.08051818
94	0xbd8f88c4	-0.07008508
95	0x3cb63a00	0.022244453
96	0xbc1095c1	-0.008824767
97	0xbc1eb21d	-0.00968602
98	0xbd877dbe	-0.0661578
99	0x3da4e20e	0.08050929
100	0xbce77633	-0.028254604
101	0x3d417df5	0.047239263
102	0x3cfe782e	0.031063166
103	0x3ceb4b11	0.028722318
104	0xbc208d21	-0.009799273
105	0x3da489ad	0.08034072
106	0x3c9f1dc5	0.019423375
107	0x3c3a4a6b	0.011370282
108	0xbd8cc6be	-0.068738446
109	0x3d17facb	0.03710441
110	0xbc5940c7	-0.013260073
111	0xbd25dbd4	-0.040492848
112	0x3d0c2076	0.034210645
113	0x3ca16ea2	0.019706074
114	0xbd484eb5	-0.048903186
115	0xbd373deb	-0.044736784
116	0xbd83d1f2	-0.06436528
117	0x3d4a25fc	0.04935263
118	0xbcb906b8	-0.022586212
119	0xbd4e91f7	-0.05043217
120	0xbc81c4c3	-0.015840894
121	0xbd873c28	-0.06603271
122	0x3d011d60	0.031522155
123	0x3d8c1dc2	0.06841613
124	0xbda42379	-0.08014578
125	0x3ca82adf	0.020528255
126	0x3d3b06b5	0.045660693
127	0x3c834be7	0.016027404
128	0xbcb4211b	-0.021988442
129	0x3d3cf697	0.046133604
130	0x3d3e418f	0.04644924
131	0x3d076049	0.03305081
132	0x3c8fcbc7	0.017553223
133	0xbcbfbc91	-0.023405345
134	0x3c1aecc7	0.009455866
135	0xbc7fd28d	-0.015614164
136	0xbc7a4dc5	-0.015277331
137	0x3d676ae8	0.056498438
138	0x3d9b9164	0.075960904
139	0xbc0f5d0d	-0.008750212
140	0x3cd4f659	0.025996374
141	0x3aa90e1e	0.0012897884
142	0xbbaceefc	-0.0052775126
143	0x3cae138c	0.021249555
144	0x3d798348	0.060916215
145	0xbda4697b	-0.08027931
146	0xbd059b1e	-0.032618634
147	0x3d987114	0.07443443
148	0x3d6edfd7	0.05831894
149	0xbb900e2e	-0.0043962216
150	0xbd5a4673	-0.05328984
151	0xbd5d7f42	-0.05407644
152	0xbd6ec982	-0.05829764
153	0xbcec05a2	-0.02881128
154	0x3cf48621	0.029849114
155	0x3d66d7fc	0.056358323
156	0x3d8dae43	0.069180034
157	0xbda002ce	-0.07813035
158	0xbd59b76a	-0.053153433
159	0xbc648afd	-0.013949153
160	0x3d9cf4ff	0.07663917
161	0x3c517c86	0.012786036
162	0xbcbb83cd	-0.022889996
163	0x3d15c7ea	0.036567606
164	0xba3c99c6	-0.0007194545
165	0xbd6a54e2	-0.057209857
166	0x3d841fab	0.06451353
167	0xbd249ea0	-0.04019034
168	0x3cb2d258	0.021828815
169	0xbdb4142d	-0.08792911
170	0x3d724d46	0.059155725
171	0x3d892582	0.06696607
172	0x3d097035	0.033554275
173	0xbd7c70b3	-0.061630916
174	0xbdb2a7bb	-0.08723398
175	0xbd930525	-0.071787156
176	0x3da0c010	0.07849133
177	0x3d2dd11d	0.042435754
178	0x3d98541d	0.07437918
179	0x3d3da941	0.04630399
180	0x3d2105b3	0.039312076
181	0xba62e6b3	-0.00086555927
182	0xbd89aa92	-0.06721987
183	0xbd9b17a3	-0.07572868
184	0xbd38431f	-0.044985887
185	0x3d143472	0.03618283
186	0xbd31bfd8	-0.043395847
187	0xbc91b8f1	-0.017788382
188	0xbd1353f6	-0.035968743
189	0xbc83f1a7	-0.01610644
190	0xbd7ed0c1	-0.062210802
191	0xbd6c8fce	-0.05775433
192	0x3d60857c	0.0548148
193	0xbcd73173	-0.026268696
194	0x3d5f808a	0.054565944
195	0xbce84a55	-0.028355757
196	0xbd2792af	-0.040911373
197	0xbc7f82c7	-0.015595145
198	0xbd2f7f4f	-0.04284602
199	0xbcdd867e	-0.02704167
200	0xbd6f154d	-0.058369923
201	0x3d4a8eae	0.049452476
202	0xbd7c0d8f	-0.061536368
203	0x3d35f790	0.044425547
204	0x3d9208fc	0.0713062
205	0x3d81537d	0.06314752
206	0xbd8ad9ec	-0.067798465
207	0x3d823043	0.063568614
208	0xbdc0692c	-0.0939506
209	0x3d065766	0.032798193
210	0x3da9ff77	0.08300679
211	0xbc4c3c67	-0.012465573
212	0x3cbbd2c5	0.022927651
213	0xbca6b46a	-0.0203497
214	0xbd9725fa	-0.0738029
215	0x3d2dbe4f	0.04241782
216	0xbd8c6e99	-0.06857032
217	0x3d60c0ea	0.054871477
218	0x3d877176	0.06613438
219	0x3dab30ee	0.08358942
220	0x3c18e976	0.009333005
221	0xbd94bbab	-0.07262357
222	0x3ca2cb64	0.019872375
223	0x3d480003	0.048828136
224	0xbd98f77e	-0.074690804
225	0xbca45a8e	-0.020062711
226	0xbd5906ac	-0.05298488
227	0xbbfd5271	-0.007730775
228	0xbcd8e0cb	-0.026474377
229	0xbd13fd5b	-0.03613029
230	0xbce5dd62	-0.028059665
231	0xbdac05fe	-0.083995804
232	0x3df3efdf	0.11910986
233	0x3d97c111	0.07409871
234	0xbc632bb0	-0.013865396
235	0xbc24eb39	-0.010065847
236	0xbc80bf96	-0.015716355
237	0xbda378ca	-0.07982023
238	0xbdb02870	-0.08601463
239	0x3d068e03	0.032850277
240	0xbc54a122	-0.01297787
241	0xbd68bf0f	-0.056822833
242	0xbbe1fab4	-0.006896341
243	0xbcf12036	-0.029434305
244	0x3c366e76	0.011134734
245	0x3b3a1faf	0.0028400233
246	0xbc9995f7	-0.018748267
247	0xbcf94f0f	-0.030433206
248	0xbdc4e276	-0.096135065
249	0xbd935189	-0.07193286
250	0x3d97c938	0.07411426
251	0xbd10e21a	-0.035371877
252	0x3d6d2cad	0.057903934
253	0xbcfb3aeb	-0.030667743
254	0x3beb5b98	0.0071825497
255	0x3da8c3b0	0.082404494

lstm.weight_hh_l0 f4 [512, 128]
0	0xbcd0cd22	-0.02548844
1	0xbd68381a	-0.056694128
2	0x3d776895	0.06040247
3	0xbbeb7a5b	-0.007186217
4	0x3dc07cdc	0.09398815
5	0x3c99e6e7	0.01878686
6	0xbc31fe20	-0.010863811
7	0x3d8c75ee	0.06858431
8	0xbd187f0f	-0.037230548
9	0xbccb8556	-0.024843853
10	0x3d35f06a	0.04441873
11	0x3d9532da	0.0728509
12	0x3d4a7a75	0.04943319
13	0x3db3da92	0.08781923
14	0x3d312f29	0.043257866
15	0xbc68dd62	-0.014212938
16	0x3caed53b	0.02134191
17	0x3a3d9841	0.00072324654
18	0x3d3b2f08	0.04569915
19	0x3d896da5	0.06710366
20	0x3e001fd9	0.12512149
21	0x3cde01a3	0.02710039
22	0x3bebaa39	0.007191923
23	0x3d713902	0.058892258
24	0xbd96ecf2	-0.073694125
25	0x3d952573	0.072825335
26	0x3d45e705	0.04831602
27	0x3d270584	0.040776744
28	0x3cd1a1c4	0.025589831
29	0xbdb3f41b	-0.08786794
30	0x3d17b4d8	0.0370377
31	0xbcedcf84	-0.029029615
32	0x3cd46530	0.025927156
33	0x3caad541	0.02085364
34	0xbd98bcc1	-0.07457877
35	0x3c8972b9	0.016778337
36	0xbd6f1182	-0.058366306
37	0x3dbb10b2	0.09134044
38	0xbd7ccb62	-0.0617174
39	0x3cb1a9c2	0.021687392
40	0x3dc62063	0.09674146
41	0x3ce5c147	0.028046263
42	0x3d72640c	0.059177443
43	0xbcddf075	-0.027092198
44	0xbd9bd1dd	-0.076083876
45	0x3d8260fb	0.06366154
46	0xbc76d497	-0.015065334
47	0x3baa2d53	0.0051933913
48	0xbd92c70e	-0.07166873
49	0x3b287663	0.002570533
50	0xbd4d82df	-0.050173637
51	0x3dbd0459	0.09229345
52	0x3d230c24	0.0398065
53	0x3dca36a1	0.09873701
54	0x3d8a328b	0.067479216
55	0xbd5ef9f9	-0.05443761
56	0xbcd4ffb3	-0.026000833
57	0xbd25f089	-0.040512595
58	0xbc339332	-0.010960387
59	0x3d8d95ec	0.06913361
60	0x3c8742d4	0.016511358
61	0x3d722daa	0.05912558
62	0x3cd4e92b	0.02599009
63	0xbdc4014e	-0.09570561
64	0xbc28efb6	-0.010311058
65	0x3d100cc7	0.035168435
66	0x3d2f2e22	0.042768605
67	0x3d04767b	0.032339554
68	0xbc97d373	-0.018533444
69	0xbd8c2545	-0.06843046
70	0xbd7f1a61	-0.062281016
71	0x3d158d66	0.0365118
72	0xbd8cfa3e	-0.068836674
73	0x3da6a353	0.081366204
74	0x3c74c055	0.014938434
75	0xbc263bc6	-0.010146087
76	0x3d1817df	0.03713214
77	0x3c0b8461	0.008515448
78	0x3c1186cc	0.008882236
79	0xbd3b3982	-0.04570914
80	0xbda65a81	-0.08122731
81	0x3d02cde4	0.031934634
82	0x3d271680	0.040792942
83	0xbcf99e97	-0.03047113
84	0x3d219d5b	0.039456706
85	0xbd6516eb	-0.05593006
86	0xbe03c4d9	-0.1286806
87	0xbd519602	-0.05116845
88	0x3c4b559d	0.0124105485
89	0x3c001008	0.007816322
90	0xbc9a09b9	-0.018803464
91	0x3c463683	0.012097958
92	0xbda92ba7	-0.08260279
93	0xbced8543	-0.028994208
94	0xbd186e88	-0.037214786
95	0x3ce5136a	0.027963359
96	0x3d730904	0.05933477
97	0x3d2840da	0.041077472
98	0xbd38bbd8	-0.045101017
99	0xbd83f251	-0.064427026
100	0xbd3c4fc3	-0.045974504
101	0xbd53daf1	-0.05172247
102	0x3d55154d	0.052022267
103	0xbc55ccb2	-0.013049291
104	0x3d08c2d7	0.03338894
105	0x3d91e859	0.07124395
106	0xbc6fdd0c	-0.014640104
107	0xbbf22299	-0.0073893783
108	0x3d349fd6	0.044097744
109	0xbc30ab6b	-0.010783057
110	0x3d942649	0.07233865
111	0xbd3f8fd2	-0.046768017
112	0x3d8bd047	0.06826835
113	0xbcd3ee77	-0.025870545
114	0xbde3d826	-0.111252114
115	0xbd45ff9d	-0.048339475
116	0x3d9cc717	0.07655161
117	0x3d4e58b0	0.050377548
118	0x3c5395e0	0.012914151
119	0x3ba6d1ac	0.005090913
120	0xbd1a9fb4	-0.03774996
121	0xbd5b9832	-0.05361194
122	0xbcb15723	-0.021647995
123	0x3cf91e44	0.03040994
124	0x3d87d6ee	0.066327915
125	0x3d04599c	0.03231202
126	0xbd5e713e	-0.054307215
127	0xbbe1d9f5	-0.0068924376
128	0xbcc61db6	-0.02418409
129	0xbd2000c0	-0.039063215
130	0xbd1dcfac	-0.03852813
131	0xbbfdb391	-0.0077423532
132	0xbdbbaac8	-0.09163433
133	0x3deeb14b	0.1165491
134	0x3d01fbcd	0.031734277
135	0xbd029b91	-0.03188664
136	0xbdb80575	-0.08985416
137	0xbced1913	-0.02894262
138	0x3bd73178	0.0065671764
139	0x3d6e89d5	0.058236916
140	0xbd72c0b9	-0.059265826
141	0x3cca574b	0.024699828
142	0xbde0b8ea	-0.109727696
143	0xbd8eb0d3	-0.0696732
144	0xbbf741b8	-0.007545676
145	0x3c687862	0.014188858
146	0x3c22910c	0.009922277
147	0xbdec9cdd	-0.11553357
148	0xbcdea1dd	-0.027176792
149	0xbd96fe8a	-0.07372768
150	0xbd501592	-0.05080182
151	0xbc935a79	-0.017987477
152	0xb9b42fd5	-0.00034367913
153	0x3be67aaa	0.0070336657
154	0xbbb238b5	-0.005438889
155	0xbcaeb188	-0.021324888
156	0xbd831387	-0.06400209
157	0xbd03c345	-0.032168645
158	0xbbae4dc0	-0.005319327
159	0x3d554087	0.05206349
160	0x3c16df2e	0.009208484
161	0x3c82a7ea	0.015949208
162	0xbd6b3a27	-0.057428505
163	0xbb2969ae	-0.0025850344
164	0xbde63e56	-0.112423584
165	0x3dd2cc99	0.1029293
166	0x3d70ef74	0.05882211
167	0xbcee4c2c	-0.029089056
168	0x3d97f8ae	0.07420479
169	0x3d3c8d8f	0.04603344
170	0x3cd192c6	0.025582682
171	0x3ca487cd	0.020084286
172	0xbde15834	-0.110031515
173	0xbd44a326	-0.048007153
174	0xbdc875cd	-0.09788094
175	0xbc0a232f	-0.00843124
176	0xbd3307f6	-0.043708764
177	0xbd18942a	-0.037250675
178	0xbd93e9ad	-0.072223045
179	0xbd42c542	-0.0475514
180	0x3ccd1ee3	0.025039142
181	0x3d0c2ccc	0.03422241
182	0xbd982a9a	-0.074300006
183	0x3d099e0a	0.033597983
184	0x3a0ea4a0	0.0005441401
185	0xbb1a81e9	-0.0023575968
186	0x3dc87185	0.09787277
187	0x3ddc3897	0.10752981
188	0xbcfa9531	-0.030588718
189	0xbdbd1aa1	-0.09233595
190	0xbd57daa7	-0.052698757
191	0xbc508d0f	-0.0127289435
192	0x3c876e6b	0.016532144
193	0x3d057f02	0.032591827
194	0xbd8c39b4	-0.068469435
195	0xbdf0cfa0	-0.11758351
196	0xbd388fa7	-0.045058873
197	0xb9e33fb4	-0.00043344276
198	0xbcf40090	-0.029785424
199	0xbd669043	-0.056289922
200	0xbdc55577	-0.09635442
201	0x3cba5474	0.022745349
202	0xbdc995bf	-0.09843015
203	0xbd1a7425	-0.03770842
204	0xbd42592e	-0.04744833
205	0xbcfa6442	-0.030565385
206	0x3db6a735	0.08918611
207	0x3ba3dddf	0.0050008143
208	0x3cc9672a	0.024585325
209	0x3d3759c0	0.044763327
210	0x3d7bd5c1	0.06148315
211	0x3d064c76	0.032787763
212	0xbdcb3146	-0.099215075
213	0xbcd1d45c	-0.025613956
214	0xbd9ed1ce	-0.07754861
215	0x3ce7c288	0.028291002
216	0xbd6fdc5f	-0.05855977
217	0x3c4abd7c	0.012374278
218	0xbd632413	-0.055454325
219	0x3dc987b7	0.09840339
220	0x3d2429a6	0.04007878
221	0x3cf91f3e	0.030410405
222	0xbca0b67c	-0.019618265
223	0x3b26ef2a	0.0025472143
224	0xbab620bc	-0.0013895254
225	0xbd9c9059	-0.0764472
226	0x3c0a0c5a	0.008425796
227	0xbd3e6939	-0.046487067
228	0xbc903fff	-0.01760864
229	0xbd28734e	-0.041125588
230	0x3d87d591	0.066325314
231	0x3def5cd8	0.116876304
232	0xbd79beeb	-0.06097309
233	0x3d37ca35	0.044870574
234	0x3c9c3cbb	0.019071927
235	0xbcf34703	-0.029696947
236	0x3d112cde	0.03544318
237	0x3d3ef533	0.04662056
238	0x3d1ffc1d	0.039058793
239	0xbda8f0ca	-0.08249052
240	0xbb822dbe	-0.003972738
241	0x3d902f20	0.070402384
242	0x3bc52c53	0.0060172467
243	0xbcc0d6d8	-0.023539945
244	0xbc08ad8c	-0.008342158
245	0xbd788937	-0.060677733
246	0xbd8282a9	-0.06372578
247	0xbc765bfa	-0.015036577
248	0xbc51468b	-0.012773166
249	0x3cc26ff9	0.023735033
250	0x3d3d3c14	0.046199873
251	0xbbd46611	-0.006481894
252	0x3c8e1a05	0.017346391
253	0x3dbc8837	0.092056684
254	0x3d8e3f44	0.06945661
255	0xbcb66a33	-0.022267437

lstm.bias_ih_l0 f4 [512]
0	0x3da19bda	0.078910545
1	0x3d904db0	0.07046068
2	0x3d371c8d	0.044704963
3	0xbd892073	-0.06695642
4	0x3bbdb378	0.0057892166
5	0x3c016842	0.007898392
6	0x3d943544	0.07236722
7	0x3daf7a65	0.08568267
8	0xbc6281ef	-0.013824924
9	0x3dbfbc68	0.093621075
10	0x3bbba241	0.0057261293
11	0xbd9571c5	-0.072970904
12	0x3cbdd7f3	0.023174262
13	0x3cafc9a8	0.021458462
14	0xbcf98f95	-0.030463973
15	0x3d09568f	0.033529814
16	0x3d311b3d	0.043238867
17	0xbbf7f800	-0.0075674057
18	0x3bda9f84	0.006671848
19	0x3d99b7b1	0.075057395
20	0x3c76aa70	0.015055284
21	0xbd945957	-0.07243603
22	0x3d61536e	0.055011205
23	0x3dd172e5	0.102269925
24	0x3d9dac32	0.07698859
25	0xbd469479	-0.04848144
26	0xbcd52b13	-0.026021516
27	0xbd19b3ca	-0.037524976
28	0x3d306dca	0.043073453
29	0x3d812e86	0.06307702
30	0xbd70f0c0	-0.058823347
31	0x3dbbbeae	0.09167229
32	0x3d36a54e	0.04459124
33	0x3cdcbb23	0.026944702
34	0xbd1a1a32	-0.037622638
35	0xbcbd0354	-0.023072876
36	0xbd2fd40f	-0.042926844
37	0x3d28063f	0.04102158
38	0x3bd41a25	0.0064728432
39	0xbd2b9d98	-0.04189834
40	0x3c7df8e9	0.015501239
41	0x3d0cd6d2	0.034384556
42	0xbc634060	-0.013870329
43	0x3d88395a	0.06651564
44	0x3c56e0a0	0.013115078
45	0xbbfbccde	-0.007684334
46	0x3de3581b	0.11100789
47	0x3d9ae832	0.07563819
48	0x3d0b86a8	0.034063965
49	0xbc89e477	-0.016832573
50	0xbd32d631	-0.0436613
51	0x3d626260	0.0552696
52	0x3dab189c	0.08354303
53	0x3d924f16	0.07143991
54	0xbdbe620b	-0.09296044
55	0xbd35ed21	-0.044415597
56	0xbd5c73ce	-0.053821377
57	0x3d8e794d	0.0695673
58	0xbb3c10c5	-0.002869652
59	0x3c90205d	0.017593557
60	0x3dcb53ef	0.099281184
61	0x3cf934fd	0.030420775
62	0x3d4bef40	0.049788713
63	0xbd58bb3a	-0.05291293
64	0xbca25d4d	-0.01981988
65	0xbd805294	-0.062657505
66	0xbd964dc3	-0.073390506
67	0x3d80ba43	0.062855266
68	0x3d031b64	0.032008544
69	0x3c39309d	0.011303094
70	0x3dae021d	0.08496497
71	0xbd0f0747	-0.03491905
72	0x3de7dafa	0.11321063
73	0x3dfb3500	0.12265968
74	0x3cf0a222	0.029374186
75	0xbd5c6ee7	-0.053816702
76	0xbd14b690	-0.036306918
77	0x3d307940	0.043084383
78	0xbcfcc938	-0.030857667
79	0x3d858dcd	0.06521187
80	0x3c75b124	0.014995847
81	0xbaa57bc1	-0.0012625383
82	0xbd6435c5	-0.05571534
83	0x3c5e84da	0.013581479
84	0x3dbfc15f	0.093630545
85	0x3d38ba2c	0.045099422
86	0xbce2e14d	-0.027695322
87	0x3cd2e513	0.025743997
88	0x3dd17ba3	0.1022866
89	0x3dcc07e9	0.09962446
90	0x3cdfed54	0.027334847
91	0x3dfbe9fe	0.1230049
92	0xbcca0652	-0.024661217
93	0x3e03bdd7	0.12865387
94	0xbc68607d	-0.014183161
95	0x3d1cbc07	0.038265254
96	0xbd3d6e1c	-0.046247587
97	0x3d34fcdd	0.04418646
98	0x3d563656	0.052297913
99	0xbc3b862b	-0.011445562
100	0x3d4b3435	0.049610335
101	0xbd98be71	-0.07458199
102	0x3dc13ce9	0.09435446
103	0xbcfcd039	-0.030861007
104	0x3be39378	0.00694507
105	0x3d3f1145	0.04664733
106	0xbd5cac2d	-0.053875137
107	0xbc8c2832	-0.01710901
108	0x3dd8b9b6	0.105822966
109	0xbd6b7cba	-0.057491995
110	0xbd168bca	-0.036754407
111	0x3dc768e9	0.09736807
112	0x3c1712e6	0.009220814
113	0x3d3ec9c7	0.04657915
114	0x3de8abff	0.11360931
115	0xbd058d78	-0.03260562
116	0xbb8b3d7b	-0.0042492724
117	0x3d877020	0.06613183
118	0x3cefc7a6	0.029270004
119	0x3dad8438	0.08472484
120	0x3a03bbfb	0.00050252647
121	0xbdb716c7	-0.08939891
122	0xbc94752d	-0.01812228
123	0xbced56d2	-0.028972063
124	0xbc77747e	-0.0151034575
125	0x3da51b2f	0.080618255
126	0x3d72f9ae	0.059320144
127	0x3d7724d7	0.060337868
128	0xbc5ecbc0	-0.0135983825
129	0x3d8d655b	0.06904098
130	0xbc2f8d7f	-0.010714888
131	0xbd2ca24e	-0.042146973
132	0x3cf08cef	0.029364077
133	0x3dbc6141	0.09198237
134	0x3ce398d3	0.027782833
135	0xbcdc5320	-0.026895106
136	0xbb517462	-0.0031960239
137	0xbb0f47f4	-0.0021862956
138	0xbd3b3c0c	-0.045711562
139	0x3d8c0bd3	0.06838193
140	0x3dce0c99	0.100609966
141	0x3dbc67c0	0.09199476
142	0xbbf3ce07	-0.007440332
143	0x3c3897d1	0.011266665
144	0xbd830f17	-0.063993625
145	0x3c87fb2d	0.016599262
146	0x3d37c89c	0.04486905
147	0xbd04e03f	-0.03244042
148	0x3dc0eb55	0.09419886
149	0x3d188fb7	0.037246432
150	0x3cf9af41	0.030479075
151	0x3d520599	0.05127487
152	0x3d1d6208	0.038423568
153	0x3d17de61	0.03707731
154	0x3d5f642d	0.054538894
155	0x3dbe069b	0.09278604
156	0x3d8a5b79	0.06755728
157	0x3d035920	0.032067418
158	0x3d098913	0.03357799
159	0xbd1348ab	-0.035957973
160	0x3be5909d	0.0070057646
161	0xbd429f3d	-0.047515143
162	0x3cff2278	0.031144366
163	0xbda86374	-0.08222094
164	0xbccec2a2	-0.025239293
165	0x3d9b0f4c	0.07571277
166	0x3d42c9cb	0.047555726
167	0xbd493662	-0.04912413
168	0x3cc12e96	0.023581784
169	0x3d97bdb0	0.07409227
170	0xbd04292a	-0.03226582
171	0x3d023118	0.0317851
172	0xbd4f9458	-0.05067858
173	0x3dbf2cfe	0.093347535
174	0x3b9d9e35	0.0048101195
175	0xbbffae9c	-0.0078027975
176	0xbd278331	-0.0408966
177	0xbd0ff798	-0.035148233
178	0x3c9a7324	0.018853731
179	0x3da919ae	0.08256851
180	0x3c85caa3	0.016331976
181	0x3ca45547	0.020060195
182	0xbc622a26	-0.013803994
183	0x3db50c6c	0.0884026
184	0xbd80fc87	-0.06298166
185	0xbd8b8f7f	-0.06814479
186	0x3daafc00	0.083488464
187	0xbb94c081	-0.00453955
188	0x3d1d1791	0.038352553
189	0xbd7e4efb	-0.06208704
190	0xbc9a2069	-0.018814282
191	0x3c84b088	0.016197458
192	0x3d9737f8	0.07383722
193	0xbb780618	-0.003784543
194	0xbcaf51c8	-0.021401301
195	0xbc89e125	-0.01683099
196	0x3d94baa2	0.0726216
197	0x3cd10be4	0.025518365
198	0x3cb4df92	0.022079263
199	0xbd904c80	-0.07045841
200	0x3d7ca351	0.06167919
201	0x3ce75615	0.02823929
202	0x3d9fca19	0.07802219
203	0x3db59c16	0.08867662
204	0xbd54d3c8	-0.051959783
205	0x3e00d73d	0.12582107
206	0x3d9d678a	0.07685764
207	0xbcc39dde	-0.023878988
208	0x3d3eeb07	0.04661086
209	0x3d93f5ff	0.072246544
210	0x3d9fb266	0.07797699
211	0x3d932424	0.07184628
212	0xbbb6fbbb	-0.005584208
213	0xbc4457e2	-0.0119838435
214	0x3dd0ef83	0.10201933
215	0x3d88b178	0.066744745
216	0xbd4e9d7a	-0.05044315
217	0xbd681357	-0.05665907
218	0xbd828f55	-0.06374995
219	0x3dcded97	0.10055082
220	0x3d049559	0.03236899
221	0x3c446c76	0.01198875
222	0x3d504cdc	0.05085455
223	0x3c05ffc9	0.00817866
224	0x3d31575c	0.043296203
225	0xbd36cd5a	-0.044629432
226	0x3d45f28a	0.048327006
227	0xbca925a6	-0.020647835
228	0x3d6a7ca6	0.05724778
229	0x3d382a3a	0.044962145
230	0x3d76fd88	0.06030038
231	0xbd1a9dff	-0.037748333
232	0x3c8cdb82	0.017194513
233	0x3de1a125	0.11017064
234	0xbd2c7901	-0.042107586
235	0x3daa72b2	0.08322658
236	0xbd552ff1	-0.052047674
237	0xbd191d61	-0.037381534
238	0xbc547b14	-0.012968797
239	0x3deca003	0.11553957
240	0xbbcd54f5	-0.006266231
241	0x3c08b034	0.008342791
242	0x3dbfc749	0.093641825
243	0x3db97976	0.0905637
244	0x3d863e18	0.06554812
245	0x3cbe0947	0.023197783
246	0x3dbf9f8b	0.09356602
247	0x3d31611d	0.043305505
248	0xbbb0ec87	-0.00539929
249	0xbdd74644	-0.10511449
250	0xbd0c0bb1	-0.034190837
251	0x3db5d5bf	0.088786595
252	0xbdc45d87	-0.095881514
253	0x3bd17789	0.0063924235
254	0x3be2a632	0.0069167847
255	0xbd6e21b2	-0.058137603

lstm.bias_hh_l0 f4 [512]
0	0x3d420b97	0.047374334
1	0x3c64876b	0.013948302
2	0xbd7e2bff	-0.062053677
3	0xbda1e088	-0.07904154
4	0x3dcda880	0.100419044
5	0xbd296dae	-0.041364364
6	0x3acc9000	0.001560688
7	0xbc2de442	-0.010613503
8	0xbd00f7ac	-0.0314862
9	0x3d434594	0.047673777
10	0x3db82616	0.08991639
11	0x3ca342cf	0.019929318
12	0xbaea3296	-0.0017867859
13	0xbce23ac8	-0.02761592
14	0xbd61fa13	-0.05517013
15	0x3d6b26cb	0.057410043
16	0xbca2f124	-0.019890375
17	0xbc19efb3	-0.009395528
18	0xbc079ba6	-0.008276856
19	0x3bc39046	0.0059681265
20	0x3df7db61	0.1210239
21	0x3d8e90d9	0.06961221
22	0x3d6a8eab	0.057264965
23	0x3d24398a	0.040093936
24	0xbd88c949	-0.06679017
25	0xbd8eca0c	-0.06972131
26	0x3d9ceed9	0.07662744
27	0x3d727e0a	0.05920223
28	0x3ce44457	0.027864618
29	0x3ceae060	0.028671443
30	0x3cad01b9	0.021118985
31	0xbd20ec90	-0.039288104
32	0xbd444bb6	-0.047923766
33	0xbcc14ba7	-0.023595644
34	0xbd3c609f	-0.045990583
35	0x3cacd2c7	0.0210966
36	0xbc611d93	-0.013739961
37	0xbcf40c2a	-0.029790957
38	0xbc71cb3c	-0.0147579275
39	0xbd7b5e29	-0.061369095
40	0x3e1408d9	0.144565
41	0x3c585754	0.013204414
42	0x3d7b1ed5	0.0613087
43	0x3c33ec02	0.010981562
44	0xbd86229c	-0.0654957
45	0xbd9a8619	-0.07545108
46	0x3dc6d3b7	0.0970835
47	0x3d2bf9bd	0.041986216
48	0x3d3f12b0	0.04664868
49	0xbcd116b9	-0.02552353
50	0x3db7615d	0.089541174
51	0x3da684f8	0.081308305
52	0x3d5a26b2	0.05325956
53	0xbc1824c2	-0.0092861075
54	0xbdb4a52e	-0.08820568
55	0xbcae1b5a	-0.021253277
56	0xbcdfb62b	-0.027308544
57	0x3da00417	0.0781328
58	0xbd04366a	-0.032278456
59	0xbcd8feb1	-0.026488634
60	0x3dcfaff7	0.101409845
61	0x3dcb0a93	0.09914126
62	0x3dfeabfd	0.12435148
63	0x3d84fa3f	0.06493043
64	0x3d265bc6	0.040614866
65	0x3d33f322	0.04393304
66	0x3b408987	0.0029378848
67	0x3b2eddaf	0.0026682427
68	0xbd47e160	-0.04879892
69	0x3915b450	0.00014276919
70	0x3d8dd1cc	0.06924781
71	0xbd016f5c	-0.03160034
72	0x3dede91f	0.1161673
73	0x3d9f284b	0.07771357
74	0x3d4377ae	0.047721557
75	0xbd03f8d5	-0.032219727
76	0x3da5f372	0.08103074
77	0x3d62c471	0.055363122
78	0x3d3edae2	0.04659546
79	0x3d152a38	0.036417216
80	0x3d9b791a	0.07591458
81	0xbcf9c3ff	-0.030488966
82	0xbd83ae11	-0.06429685
83	0x3da00f46	0.07815413
84	0x3d62233f	0.055209395
85	0x3d6f68ff	0.05844974
86	0x3d3070a7	0.043076184
87	0x3ce4b28e	0.027917173
88	0xbc97c952	-0.018528614
89	0xbd73c65e	-0.05951535
90	0x3d00b7df	0.031425353
91	0x3db00f5d	0.0859668
92	0xbcb98f6c	-0.022651397
93	0x3dd923fa	0.10602565
94	0x3dbae7d7	0.09126251
95	0xbc8e1205	-0.017342577
96	0xbc595e4c	-0.013267111
97	0x3d0daca7	0.034588482
98	0x3d6de0ea	0.058075823
99	0x3dce0949	0.10060365
100	0x3df96081	0.1217661
101	0x3bc25855	0.00593094
102	0x3dbd0afa	0.09230609
103	0x3d88513c	0.06656119
104	0x3d8b7eab	0.068112694
105	0xbcbbc5ad	-0.022921408
106	0x3d53d6d8	0.051718563
107	0xbd4e0b9a	-0.050304033
108	0xbcf27ee3	-0.02960152
109	0x3ca4a0ce	0.020096209
110	0xbce381b7	-0.027771814
111	0x3cbb50e6	0.022865724
112	0x3a96d7ca	0.0011508402
113	0x3db8b37d	0.0901861
114	0xbd10f688	-0.03539136
115	0x3d1d9c88	0.038479358
116	0x3d6ec048	0.058288842
117	0x3c7ee4ad	0.01555745
118	0x3c505b63	0.012717101
119	0x3d3e24c9	0.0464218
120	0x3d99cf57	0.0751025
121	0xbd4523d6	-0.04812988
122	0x3d8fdc82	0.070244804
123	0x3d4d50f8	0.050126046
124	0x3b2f6d83	0.0026768155
125	0x3d168632	0.036749072
126	0xbd8bef79	-0.06832785
127	0xbda35ee3	-0.079770826
128	0xbcf6936c	-0.030099593
129	0x3d90804c	0.07055721
130	0x3d10e795	0.035377104
131	0x3cd3acd3	0.025839245
132	0xbc9d2853	-0.019184267
133	0x3cc52a89	0.024068134
134	0xbd7d805e	-0.06189
135	0x3d643f14	0.05572422
136	0x3c8c87e2	0.017154638
137	0x3dc843c8	0.09778553
138	0xbbadb574	-0.005301172
139	0xbda5aa7e	-0.080891594
140	0x3d50bcfb	0.050961476
141	0x3da3ea3a	0.080036595
142	0x3c8f4338	0.017488107
143	0x3d793a21	0.06084645
144	0x3d7a3d30	0.06109351
145	0x3d9bdfdf	0.076110594
146	0x3dfac297	0.12244146
147	0xbd90766e	-0.07053839
148	0x3e0c2318	0.13685262
149	0xbd2ef132	-0.04271049
150	0xbcd55413	-0.026041066
151	0xbd880821	-0.066421755
152	0x3d8920e3	0.06695726
153	0xbd6ebfc8	-0.058288366
154	0xbd050c70	-0.032482564
155	0xbce6f613	-0.02819351
156	0x3d80d395	0.06290356
157	0x3d51b8fe	0.051201813
158	0xbc166324	-0.00917891
159	0x3d19d500	0.03755665
160	0xbd684bfa	-0.056713082
161	0xbcd13e35	-0.025542358
162	0xbd3e59ff	-0.046472546
163	0xbd19eba6	-0.037578247
164	0x3d25f702	0.040518768
165	0xbd5b1a42	-0.05349184
166	0x3d0e2eae	0.034712486
167	0x3dd87155	0.10568491
168	0x3d53f730	0.05174941
169	0xbcfbc088	-0.030731454
170	0x3d230fc8	0.039809972
171	0xbad7e86b	-0.0016472464
172	0xbda310fa	-0.079622224
173	0xbd14bd2e	-0.03631323
174	0xbd127a0e	-0.03576093
175	0xbbabfeb3	-0.0052488684
176	0xbd6731d6	-0.05644401
177	0x3cb5b4a1	0.022180857
178	0xbd9b286a	-0.07576068
179	0xbce50372	-0.027955744
180	0x3bffc8ec	0.007805934
181	0x3d9c4de1	0.07632042
182	0xbd72235c	-0.059115753
183	0x3dade83a	0.08491559
184	0xbc80260b	-0.01564314
185	0xbd60f254	-0.054918602
186	0x3c228596	0.009919545
187	0x3d81b3d3	0.06333127
188	0xbd7c746b	-0.061634462
189	0xbcf25f62	-0.029586498
190	0x3dfe9e3b	0.12432524
191	0x3c150082	0.009094359
192	0x3d2fe4ea	0.04294292
193	0x3c5199a2	0.012792977
194	0x3d3d9998	0.046289057
195	0xbd0f2406	-0.034946464
196	0x3dbe5aa5	0.09294633
197	0x3d03fb2f	0.03222197
198	0x3c8e20c1	0.017349603
199	0x3cb27b24	0.021787234
200	0x3c9d372a	0.019191343
201	0x3d78cac3	0.060740244
202	0xbd1e2a7e	-0.038614742
203	0x3bfe3e75	0.0077589103
204	0xbc950fbb	-0.018195977
205	0x3d9cda96	0.076588795
206	0x3cd55dad	0.026045645
207	0xbd491f0c	-0.049101874
208	0x3d6c527e	0.05769586
209	0x3dad9e5f	0.084774725
210	0x3d9ffaeb	0.07811531
211	0xbb687818	-0.0035471972
212	0xbc8c281d	-0.017108971
213	0x3db26b03	0.08711817
214	0xbcbca914	-0.023029841
215	0xbd058096	-0.032593332
216	0xbba90030	-0.005157493
217	0xbd8ef305	-0.06979946
218	0xbd52a157	-0.051423397
219	0x3db0576e	0.08610426
220	0x3ce00fcc	0.027351283
221	0x3d9b68b2	0.075883284
222	0x3ddfc2a3	0.10925796
223	0xbd7f99e7	-0.062402632
224	0xbd643aba	-0.05572007
225	0xbd875b34	-0.066091925
226	0xbbc5d869	-0.006037761
227	0x3d38d604	0.045125976
228	0x3d3377ac	0.0438153
229	0xbdae8be3	-0.08522775
230	0xbd32b8cd	-0.04363327
231	0xbca50f0f	-0.020148782
232	0x3df06224	0.11737469
233	0x3d7767c0	0.060401678
234	0x3d934efd	0.071928
235	0x3d41fde1	0.04736126
236	0x3dd6f614	0.104961544
237	0x3d93f92f	0.072252624
238	0x3d24b2eb	0.040209692
239	0x3e0d2e46	0.13787183
240	0x3d7c3792	0.061576433
241	0xbc9db908	-0.019253269
242	0x3cc077f1	0.023494693
243	0x3df1f8c2	0.11815025
244	0x3c3b852e	0.011445327
245	0xbc46b5a7	-0.01212827
246	0x3da1a472	0.078926936
247	0xbca0ebca	-0.019643683
248	0x3db04b9c	0.08608171
249	0x3d4ea235	0.05044766
250	0xbd4d6ba6	-0.05015149
251	0x3e0578b5	0.13034327
252	0x3b9b22da	0.0047343792
253	0xbcb11a44	-0.02161897
254	0x3d9f81bc	0.07788417
255	0x3d04f5bf	0.032460924

lstm.weight_ih_l1 f4 [512, 128]
0	0xbd82e02e	-0.06390415
1	0xbd068fa0	-0.032851815
2	0x3d0cece5	0.034405608
3	0xbd7dd2d4	-0.06196864
4	0xbd0c43c4	-0.034244314
5	0x3d933712	0.07188238
6	0x3d9cd6c8	0.07658154
7	0xbda9b801	-0.08287049
8	0x3d6790b4	0.056534484
9	0x3c68c191	0.014206306
10	0x3cf2ba8b	0.029629966
11	0x3d56b64b	0.052419942
12	0x3d8ffacb	0.07030257
13	0xbcabbd2c	-0.020964228
14	0x3d831943	0.06401303
15	0xbbcb43f5	-0.0062031695
16	0x3c53a595	0.012917896
17	0x3ccb7fe4	0.024841256
18	0xbd7549a9	-0.0598847
19	0xbd1091c6	-0.03529527
20	0xbd9d72a9	-0.07687885
21	0x3c767aa5	0.015043889
22	0x3d492402	0.049106605
23	0xbd1fe47b	-0.039036255
24	0x3cd9ed03	0.026602274
25	0xbc825336	-0.015908819
26	0xbcf5810f	-0.029968766
27	0xbd6ee55d	-0.058324207
28	0x3d433730	0.047660053
29	0xbcdac865	-0.026706884
30	0x3d76deeb	0.060271185
31	0x3dbd12b0	0.0923208
32	0xbd8260ba	-0.063661054
33	0xbc413a48	-0.0117936805
34	0xbc8f214b	-0.01747193
35	0x3d30407d	0.04303025
36	0x3d93c592	0.07215418
37	0x3d984ea8	0.074368775
38	0xbb0b6a1d	-0.0021272965
39	0x3c99b54f	0.018763212
40	0xbcd23268	-0.025658801
41	0xbdb3ac79	-0.08773131
42	0xbdb2dcee	-0.08733545
43	0x3c98d772	0.01865742
44	0xbd780946	-0.06055572
45	0xbd6a91d9	-0.057267997
46	0x3c7fc5a5	0.015611087
47	0xbd9fd596	-0.0780441
48	0x3d53da84	0.051722065
49	0x3d8b28e0	0.06794906
50	0x3a3eef26	0.00072835607
51	0x3cdf72e6	0.027276468
52	0x3d44313a	0.04789851
53	0x3cd69671	0.026194783
54	0xbda10a4e	-0.078632936
55	0x3d0a7b5e	0.03380906
56	0xbda25c83	-0.079278015
57	0xbd7635f3	-0.060110044
58	0xbdab5440	-0.08365679
59	0xbd39123d	-0.04518341
60	0x3b234f40	0.0024919063
61	0x3bc5797d	0.0060264454
62	0x3cd6b859	0.02621095
63	0x3c95fe83	0.018309837
64	0xbd89df45	-0.067320384
65	0x3cd70148	0.026245728
66	0xbcf56b73	-0.029958462
67	0x3d6a10f0	0.05714506
68	0x3da310fd	0.07962225
69	0xbc28dba2	-0.010306271
70	0x3b4e964b	0.0031522687
71	0xbd4b4950	-0.049630463
72	0x3d1f2733	0.038855743
73	0x3db474a8	0.08811313
74	0x3cf2a7b9	0.029620992
75	0x3ccd67a8	0.025073841
76	0xbc4eb2e4	-0.012615893
77	0xbda15759	-0.07877988
78	0xbca94708	-0.020663753
79	0xbd5ec478	-0.054386586
80	0x3d903a29	0.07042343
81	0xbd43896d	-0.04773848
82	0xbd907dcb	-0.07055243
83	0x3ce9be34	0.028533079
84	0xbd15f2a5	-0.036608357
85	0xbc158f16	-0.009128353
86	0x3db0d0fd	0.08633611
87	0x3d46150a	0.04835991
88	0x3d8cd0b1	0.06875742
89	0xbc9d9e4f	-0.019240526
90	0xbcdc5d5b	-0.026899984
91	0xbda8e13c	-0.08246085
92	0x3c842735	0.016131977
93	0x3d6f1941	0.058373693
94	0xbd6b5821	-0.057457093
95	0xbcffc1d8	-0.031220362
96	0x3d90f329	0.07077629
97	0xbd102a4d	-0.03519659
98	0x3d6df0a8	0.058090836
99	0x3dabaa45	0.08382086
100	0x3d3963d6	0.045261227
101	0xbd3ce185	-0.04611351
102	0x3b909e01	0.004413367
103	0x3d713738	0.05889055
104	0x3d84a901	0.064775474
105	0x3d85fb9c	0.06542131
106	0xbd4eeee7	-0.050520804
107	0x3d6241ea	0.05523864
108	0xbcbd6f10	-0.023124248
109	0x3db42a68	0.08797151
110	0xbd67480b	-0.05646519
111	0x3dc5911d	0.09646819
112	0x3da73dfa	0.08166118
113	0xb97bab79	-0.00024001104
114	0xbd58e0df	-0.05294883
115	0xbda8df0f	-0.0824567
116	0x3c1df162	0.00964007
117	0xbd15bc3a	-0.03655646
118	0xbbd938c9	-0.006629084
119	0xbd962315	-0.0733091
120	0x3ccffa98	0.025388047
121	0x3d6765be	0.056493513
122	0x3ce59a2d	0.028027618
123	0x3c32596d	0.010885579
124	0x3d3b4144	0.04571654
125	0x3d6abfcb	0.057311814
126	0xbd456f2a	-0.048201717
127	0x3ca6e644	0.020373471
128	0x3cab3c2d	0.020902717
129	0xbdb47f17	-0.08813303
130	0x3bfc793d	0.0077048824
131	0x3c9553e7	0.018228484
132	0xbd2e7292	-0.04258973
133	0xbd095e4d	-0.033537198
134	0x3ca4dc8f	0.020124702
135	0xbd235f01	-0.039885525
136	0xbccc9968	-0.024975494
137	0xbd796704	-0.06088926
138	0x3d1c01ba	0.038087584
139	0xbca6454f	-0.02029672
140	0x3dbcdf88	0.09222323
141	0xba9cc299	-0.001195985
142	0xbd6ad345	-0.05733039
143	0xbc8377ef	-0.0160484
144	0xbc3952c0	-0.011311233
145	0x3c88948a	0.016672391
146	0x3ded6c3a	0.11592908
147	0xbc9d8dd8	-0.019232675
148	0x3d1fb54b	0.038991254
149	0x3c0247b4	0.007951666
150	0x3ddff273	0.109349154
151	0xbd518080	-0.051147938
152	0x3c05fe9c	0.008178379
153	0xbce9e8e6	-0.028553437
154	0x3d83772d	0.06419215
155	0xbd501902	-0.0508051
156	0xbd1c18d9	-0.038109634
157	0xbd0fdcd6	-0.035122715
158	0xbc5da888	-0.0135289505
159	0xbcef0453	-0.029176867
160	0xbcad88ba	-0.02118336
161	0xbd8cd3ba	-0.06876321
162	0x3d5fe44e	0.054661088
163	0xbc7d0a0c	-0.01544429
164	0xbe010a1a	-0.1260151
165	0x3c1c23fd	0.009530065
166	0xbdd011fa	-0.10159679
167	0x3c8b0ee0	0.016974866
168	0x3d9d7770	0.076887965
169	0xbc93e3b9	-0.018052923
170	0xbcc39d50	-0.023878723
171	0xbd27f49f	-0.041004773
172	0xbc93ac6e	-0.018026557
173	0x3d4fc1a9	0.050721798
174	0xbe09e7dc	-0.13467354
175	0xbb915ea8	-0.0044363327
176	0xbd570658	-0.052496284
177	0x3ce450c3	0.027870541
178	0xbddad837	-0.10685771
179	0x3cf2beeb	0.029632052
180	0x3d855f5a	0.065123275
181	0x3e05d8c9	0.13070978
182	0x3d474352	0.048648186
183	0x3d16a789	0.036780868
184	0xbd66b86b	-0.05632822
185	0x3d9ca4d9	0.0764863
186	0x3dd55144	0.10415891
187	0xbace62d5	-0.0015746007
188	0xbc6d37fd	-0.014478681
189	0xbd613063	-0.054977786
190	0x3d8747a8	0.06605464
191	0xbcf75d3f	-0.03019583
192	0x3d2469ec	0.040140077
193	0xbc0bc59a	-0.008530999
194	0xbdf000b0	-0.11718881
195	0x3ce3fbd2	0.027830038
196	0xbbf206a0	-0.0073860437
197	0x3c975ec2	0.018477801
198	0xbde0f305	-0.10983852
199	0xbde9ba0c	-0.11412439
200	0x3b91cfa1	0.0044498
201	0x3d930f82	0.07180692
202	0xbca541e9	-0.02017303
203	0x3d73dfbf	0.059539553
204	0xbd60acff	-0.054852482
205	0x3c835596	0.016032021
206	0x3db7af19	0.08968944
207	0x3d465413	0.048420023
208	0x3d307e73	0.04308934
209	0x3d003b31	0.03130645
210	0x3e011506	0.12605676
211	0x3a9c123b	0.0011907289
212	0x3ca9107c	0.020637743
213	0x3de3a55c	0.11115524
214	0xbde37384	-0.11106017
215	0xbc36ba7c	-0.01115286
216	0xbc44ce16	-0.012012025
217	0x3d9d9fee	0.0769652
218	0xbb1a31d0	-0.0023528226
219	0x3c18edac	0.009334009
220	0xbca1abeb	-0.019735297
221	0xbd714d1b	-0.058911424
222	0x3bc21134	0.005922461
223	0xbca5001f	-0.02014166
224	0x3c923a51	0.017850073
225	0xbd6b0d6e	-0.057385854
226	0x3d5800ac	0.052735016
227	0xbd0fc2ad	-0.035097767
228	0xbd5c10f6	-0.053727113
229	0xbd8c0548	-0.06836945
230	0x3d5f2b24	0.0544845
231	0xbbba0013	-0.0056762784
232	0xbdee385b	-0.11631843
233	0xbb4c186a	-0.0031142482
234	0x3cf7d027	0.030250622
235	0xbd73be24	-0.059507504
236	0x3d98b346	0.07456069
237	0x3c3dacb1	0.011576817
238	0xbc17cc16	-0.0092649665
239	0xbcf949a5	-0.030430624
240	0x3cbae90a	0.0228162
241	0x3df88dbc	0.12136409
242	0xbd2273b6	-0.03966113
243	0xbd973eba	-0.07385011
244	0x3d13899f	0.036019918
245	0x3d1c6b27	0.038188126
246	0x3c037f8a	0.008026013
247	0x3debad55	0.1150767
248	0xbe0e64b8	-0.13905609
249	0xbc63fbb8	-0.013914995
250	0xbdaec84d	-0.08534298
251	0x3de3f384	0.11130431
252	0x3ce3bc4d	0.02779975
253	0x3d1e1c73	0.03860135
254	0x3ddb412d	0.10705791
255	0x3c89d14c	0.016823433

lstm.weight_hh_l1 f4 [512, 128]
0	0x3ce33e8f	0.027739791
1	0x3d26b7d5	0.04070266
2	0x3d0d14fb	0.034443837
3	0x3cdb37bb	0.026759973
4	0xbd99fd7d	-0.07519052
5	0xbd8db581	-0.06919385
6	0xbd429214	-0.047502592
7	0x3d13fd15	0.03613003
8	0xbbfc06f3	-0.007691258
9	0x3d22bce1	0.03973091
10	0xbd94165f	-0.072308294
11	0x3d9a2fdd	0.075286604
12	0x3c961f88	0.018325582
13	0xbb6b1bf4	-0.0035874816
14	0xbbd7df45	-0.006587895
15	0xbc857f3d	-0.016296024
16	0x3d03a377	0.032138314
17	0xb9fb5b4a	-0.00047942466
18	0xbdd1a6a1	-0.1023686
19	0x3d80042b	0.06250795
20	0xbbfae19f	-0.0076562907
21	0xbcac35ed	-0.021021808
22	0xbc3bb8be	-0.01145762
23	0xbc74f158	-0.014950119
24	0x3d9d39a2	0.07677008
25	0x3dae6060	0.08514476
26	0x3bf0f289	0.007353131
27	0xbda62d1b	-0.08114072
28	0x3b2ec853	0.0026669696
29	0x3db9fc8b	0.09081372
30	0xbc6c67a6	-0.014429009
31	0xbd9cf294	-0.076634556
32	0xbce515b4	-0.02796445
33	0xbd74e643	-0.059789907
34	0xbced3b01	-0.0289588
35	0x3c7e9985	0.015539532
36	0xbbf99501	-0.0076166396
37	0x3d9f5776	0.07780354
38	0x3d999d80	0.07500744
39	0xbd183029	-0.037155304
40	0x3dddd96d	0.10832486
41	0x3d402672	0.046911664
42	0x3d5ab204	0.053392425
43	0xbc78345b	-0.015149201
44	0xbdcf0148	-0.10107666
45	0x3d2e9142	0.042618997
46	0x3c831211	0.015999826
47	0x3d073c08	0.033016235
48	0xbd0aab5d	-0.03385483
49	0x3caedf09	0.021346586
50	0x3d0b546c	0.034016058
51	0x3c64949b	0.013951446
52	0xbd22098b	-0.039559882
53	0x3da7f7fe	0.08201598
54	0xbca5340c	-0.02016642
55	0xbd9e38c6	-0.077256724
56	0x3db02fda	0.08602877
57	0x3d56e88f	0.05246788
58	0x3c60af4d	0.01371367
59	0x3c9d3527	0.019190384
60	0x3b7827f2	0.0037865606
61	0x3d815678	0.06315321
62	0x3bdd086b	0.0067453883
63	0x3ccbde0f	0.02488616
64	0x3d881aa0	0.06645703
65	0xbd131c7d	-0.03591584
66	0xbd32fa14	-0.043695524
67	0xbd263fbf	-0.040588137
68	0x3ce09c5c	0.027418308
69	0xbd789741	-0.060691122
70	0xbce10cc6	-0.027471911
71	0xbd15ad11	-0.036542002
72	0xbdcb999e	-0.099414095
73	0xbda0af01	-0.07845879
74	0xbc367020	-0.011135131
75	0x3d1267cb	0.035743516
76	0x3cf1dfdb	0.029525688
77	0x3c5e46a8	0.01356665
78	0x3d9703e6	0.073737904
79	0x3c12343f	0.008923589
80	0xbd57b9e5	-0.052667517
81	0xbd14cd1d	-0.036328424
82	0xbc147f1d	-0.009063509
83	0xbd7293e5	-0.059223074
84	0x3d8662ed	0.06561837
85	0x3da3fa0c	0.08006677
86	0xbc325167	-0.010883666
87	0xbda2a9af	-0.07942521
88	0xbd55f93e	-0.05223965
89	0xbd872648	-0.065990984
90	0x3d190027	0.03735366
91	0x3d535a41	0.051599745
92	0x3d4f4cd3	0.050610375
93	0xbccf222f	-0.025284855
94	0xbd41756a	-0.047231115
95	0x3d03f28c	0.032213733
96	0x3c29ccd9	0.010363781
97	0x3c2806a8	0.010255493
98	0x3d826b89	0.06368167
99	0xbd747ee8	-0.05969134
100	0xbd089a29	-0.033350144
101	0xbd6d2625	-0.057897706
102	0x3d935504	0.0719395
103	0xbd17763b	-0.036977988
104	0x3bf9aeed	0.0076197297
105	0xbd058e82	-0.03260661
106	0xbcabb705	-0.020961294
107	0xbdaa3a44	-0.083118945
108	0x3caabfec	0.020843469
109	0x3845e609	4.7182697e-05
110	0x3d6cdc9a	0.05782757
111	0x3d0c6b52	0.034282036
112	0xb9501a35	-0.00019846189
113	0xbd643473	-0.055714082
114	0xbd004794	-0.031318262
115	0x3d0701c2	0.03296066
116	0x3d9f978f	0.077925794
117	0x3cff0f75	0.0311353
118	0x3d22f953	0.039788555
119	0x3da90430	0.08252752
120	0xbd6d7249	-0.05797032
121	0xbd96b03d	-0.073578335
122	0x3cf24fc2	0.029579047
123	0xbd219b56	-0.03945478
124	0x3cf4790b	0.029842874
125	0x3bf544ff	0.0074850316
126	0x3cd86a83	0.026417976
127	0x3d5d7221	0.05406392
128	0x3def8f26	0.11697225
129	0x3bb73e56	0.005592148
130	0x3cfa8501	0.030581
131	0xbbc63bac	-0.006049594
132	0xbbbde706	-0.0057953624
133	0xba614b2d	-0.0008594271
134	0x3bc11bc2	0.0058932016
135	0xbd7cefc6	-0.061752103
136	0x3d01ef9c	0.03172265
137	0xbd0220ad	-0.031769443
138	0x3d76278f	0.06009632
139	0xbc9cf5b5	-0.019160131
140	0x3d071392	0.032977648
141	0x3d4bd7b1	0.049766246
142	0x3db05a9f	0.086110346
143	0x3da41198	0.08011168
144	0xbda4cbdd	-0.08046696
145	0x3c4ba281	0.012428881
146	0x3cd63079	0.02614616
147	0xbc20ce6a	-0.009814838
148	0x3dc8e6e1	0.09809662
149	0xbcaccd2f	-0.021093933
150	0xbde6d3bb	-0.11270853
151	0xbc6c0005	-0.0144043015
152	0xbc951e57	-0.018202944
153	0xbd61205d	-0.054962505
154	0x3c8921ec	0.016739808
155	0x3da66da9	0.08126385
156	0xbc3a67d9	-0.011377298
157	0xbcf230f2	-0.029564355
158	0x3d5e878d	0.05432849
159	0xbdedf057	-0.11618107
160	0xbde85554	-0.113444
161	0x3cdf80e4	0.02728314
162	0xbd34fb52	-0.04418499
163	0x3c372125	0.011177336
164	0xbbe99907	-0.007128838
165	0x3c04eb42	0.00811273
166	0x3c4eaf3e	0.012615023
167	0x3d43e5b4	0.047826484
168	0x3ce3a7a6	0.027789902
169	0x3d2ecfcf	0.04267865
170	0xbc15245e	-0.009102909
171	0xbd7ca1bc	-0.06167768
172	0xbb0a9b71	-0.002114978
173	0xbd47f4c7	-0.048817422
174	0x3cc8ac0c	0.0244961
175	0xbd914961	-0.07094074
176	0x3d4bdac1	0.049769167
177	0xbdadddd6	-0.084895775
178	0xbd92dc34	-0.07170907
179	0xbd71a89f	-0.0589987
180	0x3c4851a5	0.012226497
181	0xbd3325bd	-0.043737162
182	0x3c1d9609	0.009618291
183	0xbd8d36a4	-0.068951875
184	0xbd386e5e	-0.04502713
185	0x3cfb1575	0.03064988
186	0xbd9293d3	-0.071571015
187	0xbd3ad9d5	-0.045617897
188	0x3b2e7980	0.0026622713
189	0xbc85d023	-0.016334599
190	0xbdf467c3	-0.119338535
191	0xbdd81bbc	-0.10552165
192	0x3da656d8	0.08122033
193	0x3d0be575	0.034154374
194	0xbcd2a623	-0.025713986
195	0x3b33f572	0.002745953
196	0x3bf57d10	0.0074917153
197	0xbd8072e0	-0.06271911
198	0xbc94fce2	-0.01818699
199	0xbde1eb24	-0.11031178
200	0xbcfc29e5	-0.030781696
201	0xba2eda51	-0.0006670105
202	0x3bea90d6	0.007158379
203	0x3ca99d9c	0.020705037
204	0x3d971643	0.07377293
205	0x3d3a3aeb	0.045466345
206	0x3d22fa37	0.039789405
207	0xbcf6799a	-0.030087281
208	0xbc89279a	-0.016742516
209	0xbd235d9d	-0.0398842
210	0x3de9871a	0.11402722
211	0xbcce043b	-0.025148502
212	0xbd4913ab	-0.049091022
213	0xbcb40124	-0.0219732
214	0x3e085d0d	0.13316746
215	0xbd2734a3	-0.040821683
216	0x3b831a19	0.004000914
217	0xbd89434c	-0.06702289
218	0xbd8c075c	-0.06837341
219	0x3de614c1	0.11234427
220	0x3aa06ccd	0.0012239456
221	0xbdd0c819	-0.101944156
222	0xbc9c8cee	-0.01911017
223	0xbda2b98f	-0.07945549
224	0x3e006fc9	0.12542643
225	0xbcb5b790	-0.022182256
226	0x3d17204b	0.03689603
227	0x3b9c548f	0.0047708224
228	0x3bd423be	0.0064739874
229	0xbcc0319c	-0.023461156
230	0x3dd5751d	0.10422728
231	0x3bbb2fab	0.0057124696
232	0xbd2bee95	-0.041975576
233	0xbda1481c	-0.07875082
234	0x3ca0b219	0.019616174
235	0x3ba33a9c	0.004981352
236	0x3d44ea29	0.048074875
237	0x3ca2ae74	0.019858576
238	0xbde6f15e	-0.11276506
239	0x3d1d35a4	0.038381234
240	0x3de558a6	0.11198549
241	0x3ca31e13	0.019911801
242	0x3d09446a	0.03351251
243	0xbda5a439	-0.080879636
244	0xbcae87c6	-0.021304976
245	0x3d00b6e8	0.031424433
246	0x3d406a30	0.04697627
247	0x3dd21b61	0.10259128
248	0x3c73687f	0.014856457
249	0xbd991d16	-0.07476251
250	0xbdd4b1c4	-0.103854686
251	0x3cc0bed6	0.023528498
252	0xbd85f02e	-0.06539951
253	0xbd30aa5f	-0.04313123
254	0x3da72016	0.08160417
255	0x3bedab7f	0.00725311

lstm.bias_ih_l1 f4 [512]
0	0x3c3f68a8	0.011682667
1	0x3dc9287c	0.09822175
2	0x3d5665e9	0.052343283
3	0x3c3b853c	0.01144534
4	0x3cbd9a75	0.02314494
5	0xbd2757e3	-0.0408553
6	0xbb525496	-0.0032093874
7	0x3e27b727	0.16378461
8	0x3d85aaa9	0.065266915
9	0xbdc08cbe	-0.094018444
10	0xbd76f5fe	-0.06029319
11	0xbcc7ccf7	-0.024389727
12	0x3cb30484	0.02185274
13	0x3d5d006b	0.053955477
14	0x3e68e060	0.22741842
15	0xbd90bedb	-0.07067653
16	0xbd89f849	-0.0673681
17	0xbd423160	-0.04741037
18	0x3d8d887e	0.069107994
19	0xbcafd1aa	-0.02146228
20	0x3dcb6858	0.09932011
21	0x3c611c61	0.013739676
22	0x3d16c20b	0.036806148
23	0xbca407b6	-0.020023208
24	0xbd09ba55	-0.033624966
25	0xbd9f27b5	-0.077712454
26	0xbd13ad93	-0.036054205
27	0x3d84bd50	0.06481421
28	0xbd8a7933	-0.06761398
29	0xbd1dccfe	-0.038525574
30	0xbd51fd8e	-0.0512672
31	0xbd3d4845	-0.0462115
32	0xbda57a31	-0.08079947
33	0x3bf6735f	0.0075210775
34	0xbd407003	-0.046981823
35	0xba34fe16	-0.0006904317
36	0xbd5d5c4c	-0.0540431
37	0x3d547d44	0.051877275
38	0x3da13f8b	0.07873448
39	0x3de33cb9	0.11095566
40	0x3d86cc18	0.065818965
41	0xbdb50c38	-0.08840221
42	0xbd0fbd18	-0.035092443
43	0x3d388528	0.045048863
44	0x3d0c4870	0.03424877
45	0xbd807b81	-0.062735565
46	0xbd42f42f	-0.047596153
47	0x3bec8e7d	0.0072191344
48	0x3e0f4243	0.1399012
49	0xbc93c35e	-0.018037494
50	0x3dafba63	0.08580472
51	0xbbcd2587	-0.006260577
52	0x3c18ee69	0.009334185
53	0x3d8fb074	0.07016078
54	0x3d93ebcb	0.07222708
55	0x3d853276	0.06503765
56	0x3d53d68f	0.05171829
57	0x3d2c953a	0.0421345
58	0xbc41fb39	-0.011839681
59	0x3c7e0653	0.0155044375
60	0x3d994024	0.07482937
61	0x3d93725b	0.07199546
62	0xbdb551d8	-0.08853501
63	0xbd947f9f	-0.07250904
64	0x3d7a50bb	0.061112147
65	0x3d750e59	0.059828136
66	0xbd8e832a	-0.06958611
67	0xbdc0dd7a	-0.09417243
68	0x3d78233a	0.06058047
69	0xbd187632	-0.037222095
70	0x3db149b5	0.086566366
71	0x3cc9a81b	0.024616292
72	0xbd1122cd	-0.03543358
73	0xbda48b25	-0.08034352
74	0xbc914b2e	-0.017736044
75	0x3d0ef403	0.034900676
76	0x3d8849c0	0.06654692
77	0xbd50a95f	-0.050942775
78	0xbd167abf	-0.036738154
79	0x3d428a36	0.04749509
80	0x3da2eb95	0.0795509
81	0xbc1cfee0	-0.009582251
82	0xbd4cf6a0	-0.050039887
83	0x3ce468d0	0.02788201
84	0x3d8b2ef3	0.06796064
85	0xbd54907c	-0.051895604
86	0xbd3163a4	-0.043307915
87	0xbacdb9a3	-0.0015695583
88	0xbd262ed3	-0.040572
89	0xbd23afdf	-0.039962646
90	0x3da34914	0.07972923
91	0x3d776968	0.060403258
92	0xbc974ea0	-0.018470109
93	0x3dcc3a4c	0.09972057
94	0x3ca55f74	0.020187117
95	0x3d313000	0.043258667
96	0xbd92b773	-0.071638964
97	0x3bcdf25b	0.0062849945
98	0x3df5a2aa	0.11993916
99	0xbd69bfa8	-0.057067543
100	0x3cea1b89	0.028577583
101	0x3dac0aea	0.08400519
102	0xbd39c7ff	-0.045356747
103	0x3b6db2a2	0.0036269804
104	0xbd9d1a66	-0.07671051
105	0x3dac933f	0.084265225
106	0xbc486db9	-0.012233191
107	0x3c2bf3ab	0.010495107
108	0xbcc169ea	-0.023610074
109	0x3d45dcd2	0.048306294
110	0x3d927d01	0.07152749
111	0xbc8c09fb	-0.017094603
112	0x3d2b0557	0.04175314
113	0x3d564e72	0.052320905
114	0x3d31629e	0.04330694
115	0x3e0de6f6	0.13857636
116	0x3db2a5f5	0.0872306
117	0x3d2f2b6a	0.042766012
118	0x3d4b25a6	0.04959645
119	0xbd9bc1f2	-0.076053515
120	0x3b21dbf5	0.0024697755
121	0x3ca9f799	0.020747947
122	0x3d9a8dd8	0.07546586
123	0x3cd9d4cd	0.02659073
124	0xbd9195fe	-0.07108687
125	0xbdbe9aa8	-0.09306842
126	0x3d2fe929	0.04294697
127	0x3dde830c	0.10864839
128	0xbcf4eb19	-0.02989726
129	0x3d629ac6	0.055323385
130	0xbcae593d	-0.021282787
131	0x3dab22a9	0.0835622
132	0xbcf4387d	-0.029812092
133	0xbd8a0f4f	-0.06741201
134	0xbc05a09a	-0.008155966
135	0x3c5c0d18	0.013430856
136	0xbb425f32	-0.0029658792
137	0xbd8254fa	-0.06363864
138	0x3bbb362c	0.005713245
139	0xbd76b38c	-0.060229823
140	0x3bc45654	0.0059917364
141	0xbd5cd4aa	-0.05391375
142	0x3e0019a8	0.12509787
143	0xbcc937da	-0.024562765
144	0x3d871287	0.06595331
145	0xbb65b39d	-0.0035049685
146	0x3d0f671f	0.035010453
147	0x3d94ea3d	0.0727124
148	0xbca90c7f	-0.020635841
149	0x3dc9d155	0.0985438
150	0x3d3e8889	0.04651693
151	0x3d503cb9	0.05083916
152	0xbd2a4f40	-0.041579485
153	0xbd11ff3c	-0.0356438
154	0xbd15eee0	-0.036604762
155	0x3d9c282f	0.07624852
156	0x3c6d0701	0.014467002
157	0xbcae2802	-0.021259312
158	0xbc36448e	-0.011124743
159	0xbd4b0b12	-0.049571104
160	0x3da5d4ec	0.08097252
161	0x3bd36a2e	0.0064518666
162	0x3d50a42d	0.05093782
163	0xbc693fd0	-0.0142364055
164	0x3cf38d26	0.02973039
165	0x3d5d96b4	0.0540988
166	0xbd6631e5	-0.056199927
167	0xbcd30dc9	-0.02576341
168	0xbcc65573	-0.024210667
169	0xbd4712ba	-0.048601843
170	0x3d7dbb75	0.06194635
171	0xbd48cd83	-0.049024116
172	0x3d93f050	0.0722357
173	0x3da6f004	0.08151248
174	0x3d1f1f85	0.03884842
175	0xbb0a2a48	-0.002108233
176	0x3d25ae78	0.04044959
177	0xbc00dd45	-0.007865255
178	0x3d8edd97	0.06975859
179	0xbd544b59	-0.05182967
180	0x3ae16047	0.001719483
181	0x3d9e8a96	0.07741277
182	0x3d839073	0.06424036
183	0xbd84fd7a	-0.06493659
184	0x3c2b1033	0.010440874
185	0xbba2ff92	-0.004974314
186	0xbd940397	-0.07227247
187	0x3d9fb75d	0.07798646
188	0xbd76d694	-0.06026323
189	0x3bc52cac	0.006017288
190	0xbc07e64c	-0.008294653
191	0x3d15f91a	0.036614515
192	0x3d5bf39d	0.053699125
193	0xbc8d17e3	-0.017223304
194	0x3aa6b84c	0.001271972
195	0xbda846dd	-0.08216641
196	0x3da90927	0.08253699
197	0x3d828efc	0.06374928
198	0x3d34a8fc	0.04410647
199	0xba8cfde9	-0.0010756823
200	0x3c6568e8	0.014002062
201	0xbdc91e91	-0.09820283
202	0xbc0d6d14	-0.008631963
203	0x3d5abd67	0.053403284
204	0x3c3f8ba8	0.0116910115
205	0xbd8db26c	-0.06918797
206	0xbd460b1e	-0.048350446
207	0x3d1802e4	0.03711213
208	0x3d4f5874	0.050621465
209	0x3d886a26	0.06660871
210	0xbc0f1cb6	-0.008734873
211	0x3ceb9b6c	0.028760634
212	0x3e06df60	0.13171148
213	0x3d68171d	0.056662668
214	0x3c38d873	0.011282074
215	0x3c75ed15	0.015010138
216	0xbd2569c3	-0.040384065
217	0x3c89e864	0.016834445
218	0xbcc19f69	-0.023635583
219	0x3cf65b2f	0.030072777
220	0xbc6e49d1	-0.014543966
221	0xbd1afc80	-0.03783846
222	0x3cd5b99e	0.026089486
223	0x3d7cd0ac	0.061722443
224	0x3cdc0eea	0.02686258
225	0xbda0be98	-0.07848853
226	0x3daca17b	0.084292375
227	0x3c68be48	0.014205523
228	0x3d51d32a	0.051226772
229	0x3d7f0bb6	0.062267028
230	0xbd8af783	-0.0678549
231	0x3daf387f	0.08555698
232	0x3c420938	0.011843018
233	0x3b02d9e1	0.0019966292
234	0x3d584a6c	0.05280535
235	0xbcf19ae1	-0.029492797
236	0x3d9d0037	0.076660566
237	0xbd75b1d5	-0.059984047
238	0xbcef7129	-0.029228764
239	0xbbea8b41	-0.0071577136
240	0xbc02c87f	-0.007982372
241	0x3dd62c86	0.10457711
242	0xbd3a4cb8	-0.04548332
243	0x3ce236bd	0.027613992
244	0xbd46ca4b	-0.048532765
245	0x3d3c2cb8	0.045941085
246	0x3ca129fc	0.01967334
247	0x3dae14e9	0.08500082
248	0x3c651590	0.013982192
249	0x3cb9b4a2	0.02266914
250	0xbcebe820	-0.02879721
251	0x3d90ee25	0.070766725
252	0xbcc2275f	-0.023700414
253	0xbdbdb17c	-0.09262368
254	0xbd963081	-0.0733347
255	0x3dc79c2f	0.097465865
